model/nn_fraud_best.pth (torch, 213793 bytes, 7 tensors)

net.0.weight f4 [256, 43]
0	0xbd50790a	-0.05089668
1	0x3d864acf	0.06557237
2	0xbdb4a63b	-0.088207684
3	0xbe18505b	-0.14874403
4	0x3ddb21ed	0.1069983
5	0x3d6e371d	0.05815803
6	0xbd38acaa	-0.04508654
7	0x3d6442d9	0.055727813
8	0x3da0944d	0.07840786
9	0xbc29d6b8	-0.010366134
10	0xbe154355	-0.14576466
11	0xbe28d915	-0.1648906
12	0x3df02998	0.117266834
13	0xbe0fc3d0	-0.1403954
14	0x15ea6846	9.467636e-26
15	0x14bb58d5	1.8917213e-26
16	0xb310d1cf	-3.3718432e-08
17	0x17b6967c	1.1799462e-24
18	0x312ffd6c	2.5609905e-09
19	0x3ca72d92	0.020407472
20	0xa1a65a63	-1.1272523e-18
21	0x3b52166e	0.0032056826
22	0x3d443437	0.04790136
23	0x3de37457	0.111061744
24	0xbdd15038	-0.10220379
25	0xbcb0c54b	-0.021578452
26	0x3deb8bfd	0.1150131
27	0x3cce24c4	0.025164016
28	0x3d03cc22	0.032177098
29	0x3d4d0bb2	0.05005998
30	0xbc70d3bc	-0.014698919
31	0xbd92e8cc	-0.07173309
32	0x3dbaa58a	0.09113605
33	0xbe27c971	-0.16385438
34	0x3d71b907	0.059014346
35	0x3dc3934e	0.095495805
36	0x3ad769ab	0.001643469
37	0xbc7c4dbd	-0.015399394
38	0xbb791df4	-0.0038012238
39	0xbbad6570	-0.0052916333
40	0xbdaa6f2a	-0.08321984
41	0xbe02bcaf	-0.1276729
42	0x3d887814	0.06663528
43	0xbe1f0bd6	-0.15531859
44	0xbdf588fe	-0.1198902
45	0x3d50ec0b	0.051006358
46	0xbce00fb0	-0.02735123
47	0xbdbf785a	-0.09349127
48	0xbc8eec8e	-0.017446782
49	0xbd3543a0	-0.044253945
50	0x3cf3d030	0.029762357
51	0xbd57534e	-0.05256968
52	0xbc7fc3e9	-0.015610673
53	0x3d844405	0.06458286
54	0xbe305a1c	-0.17221874
55	0x3c41ffd3	0.011840778
56	0xbde54618	-0.1119501
57	0x38423a4b	4.6307494e-05
58	0x181c691f	2.02156e-24
59	0xbc558f81	-0.013034702
60	0x23bc6b15	2.0428352e-17
61	0x3b5aaa77	0.0033365765
62	0x19df75e0	2.3105269e-23
63	0xbbda2d9c	-0.006658269
64	0x3d679fb2	0.05654878
65	0xbe1ffaaa	-0.15622965
66	0xbddf8315	-0.10913674
67	0xbe23c9d3	-0.15994959
68	0x3e181ce3	0.1485477
69	0x3ca6abc6	0.02034558
70	0x3d0b226b	0.03396837
71	0x3cf16bfa	0.029470433
72	0x3c5e641f	0.013573675
73	0xbc074374	-0.008255828
74	0xbccd5a7b	-0.025067559
75	0x3c76df16	0.015067836
76	0x3d5c6705	0.053809185
77	0x3c58f2c7	0.013241476
78	0xbd3fc115	-0.046814997
79	0xbbbb6ebb	-0.005719987
80	0x3de9b7d5	0.11412016
81	0x3c88ad27	0.016684128
82	0x3d25cdbf	0.040479418
83	0x3da3a317	0.07990091
84	0xbc6e5031	-0.014545486
85	0xbd902833	-0.070389174
86	0xbdc153f8	-0.09439844
87	0xbe596bbc	-0.21232504
88	0x3e15ac62	0.1461654
89	0xbdd86f04	-0.105680496
90	0x3c95c12d	0.01828059
91	0xbe14d927	-0.14535962
92	0x3d9b9fa1	0.07598806
93	0xbe5bca50	-0.21463895
94	0x3d2c7115	0.04210003
95	0xbda346b8	-0.07972473
96	0xbe3630e4	-0.17792088
97	0x3da8e2e3	0.082464
98	0x3c824704	0.015903004
99	0xbdfa3b4a	-0.1221834
100	0xb6a7e903	-5.004114e-06
101	0x3ac21aee	0.0014809051
102	0x929fca2e	-1.0084152e-27
103	0xba907ec8	-0.0011024112
104	0xbc55d867	-0.013052083
105	0xb7dc45f9	-2.6258627e-05
106	0x3879ce1f	5.955819e-05
107	0xbd9e7735	-0.07737581
108	0xbdf99b35	-0.121878065
109	0x3da5b58b	0.08091267
110	0xbd146d30	-0.03623694
111	0xbda850fd	-0.08218572
112	0x3d034605	0.032049198
113	0x3ca225e7	0.019793464
114	0x3d55a570	0.052159727
115	0xbe0a7b93	-0.13523702
116	0x3d076b8b	0.033061545
117	0x3b729343	0.0037014044
118	0x3c709d81	0.014685989
119	0x3a8d372c	0.0010773889
120	0xba958625	-0.0011407776
121	0xbd9ac9b7	-0.07558005
122	0xa54a4802	-1.7545104e-16
123	0xbe00d34c	-0.12580603
124	0x3dcd7174	0.10031405
125	0x3e05af2c	0.13055104
126	0x3e392972	0.18082216
127	0xbd87cef3	-0.06631269
128	0x3dc51f4d	0.09625111
129	0xbd45e150	-0.048310578
130	0xbdee7aa1	-0.11644483
131	0xbe5782fc	-0.2104606
132	0x3dd530f0	0.10409725
133	0x3d640cc1	0.055676226
134	0x3dd1f983	0.10252669
135	0xbcd4a0ea	-0.025955636
136	0x3de2485d	0.110489585
137	0x3e06007b	0.13086121
138	0x3dba26e7	0.09089451
139	0xbdffa40a	-0.1248246
140	0x3d5cc1d0	0.05389577
141	0x3d790176	0.06079241
142	0xbdbedfdb	-0.09320041
143	0xbc84e90b	-0.016224405
144	0xbc8078a2	-0.015682522
145	0xb88cb2a1	-6.7089924e-05
146	0x2f3c17f0	1.7107005e-10
147	0x3ad5403b	0.0016269753
148	0x1dac018a	4.5529612e-21
149	0xbc7823c7	-0.015145249
150	0x3d71ba54	0.059015587
151	0x3ddd0379	0.10791678
152	0xbc190add	-0.009340969
153	0x3cf093e3	0.029367393
154	0xbd442c80	-0.047894
155	0x3daac37e	0.083380684
156	0x3d129a27	0.035791542
157	0xbae8893e	-0.0017741097
158	0x3cab691d	0.020924145
159	0xbdf95eba	-0.12176271
160	0xbddd3b88	-0.1080237
161	0xbdd1391f	-0.10215973
162	0xbe162aec	-0.14664811
163	0xbcf56a07	-0.029957784
164	0xbdd8ce05	-0.1058617
165	0x3080ae89	9.362832e-10
166	0xbdb1b55d	-0.086771704
167	0xbdd47ed0	-0.1037575
168	0xbd7a9667	-0.06117859
169	0x3d09ef44	0.033675447
170	0xbde5c97a	-0.11220069
171	0xbd932d47	-0.0718637
172	0x3db033eb	0.086036526
173	0x3e05570e	0.1302149
174	0x39a3ca36	0.00031240442
175	0x3da5a7c7	0.080886416
176	0xbd104436	-0.0352213
177	0xbd5a3588	-0.053273708
178	0xbd32ba62	-0.04363478
179	0xbc70b25d	-0.014690963
180	0x3da85574	0.08219424
181	0xba57ce35	-0.00082323264
182	0x3cccbebe	0.024993297
183	0x3d3fe610	0.046850264
184	0xbd977f85	-0.07397369
185	0x3e32af54	0.17449695
186	0x38bf565c	9.1236754e-05
187	0xbba01588	-0.004885379
188	0x3b20745e	0.0024483423
189	0x96912620	-2.3450074e-25
190	0xbac43e8d	-0.0014972255
191	0xbc880cb9	-0.01660763
192	0xbc9bad8a	-0.019003648
193	0xbc30e623	-0.010797056
194	0xbdbe5362	-0.09293248
195	0x3c251600	0.010076046
196	0x3a14fbb4	0.00056832586
197	0xbd90f8fb	-0.07078739
198	0x3d46b8ec	0.0485162
199	0xbaf97245	-0.0019031247
200	0x3c415e0e	0.01180221
201	0x3e0748ea	0.13211408
202	0x3db039e8	0.08604795
203	0x3ddbab3a	0.10726018
204	0x3d3f4035	0.046692092
205	0x3da365a9	0.079783745
206	0xbdae5c40	-0.08513689
207	0x3dd3573e	0.103193745
208	0x97066683	-4.3427123e-25
209	0x3bf8d348	0.007593546
210	0xbd7bd537	-0.061482634
211	0xbde530bc	-0.11190936
212	0xbd978d7c	-0.07400033
213	0x3d1a6563	0.037694346
214	0x3d230c50	0.039806664
215	0xbd36583f	-0.04451775
216	0x3c49499a	0.012285614
217	0xbc69d83c	-0.014272746
218	0xbe0d522f	-0.13800882
219	0xbd24bc94	-0.040218905
220	0x3db1d133	0.0868248
221	0xbcd91d9f	-0.026503382
222	0xbdb18b9a	-0.08669205
223	0x3dccd6c7	0.10001903
224	0xbc2c8011	-0.01052858
225	0x3e8eecca	0.2791503
226	0x3e13df58	0.14440668
227	0xbe448a38	-0.19193351
228	0xbd206aa6	-0.039164208
229	0x13b1ca7b	4.4880743e-27
230	0x9e864cb7	-1.421953e-20
231	0xb777621e	-1.4745192e-05
232	0x2db7f3e9	2.091301e-11
233	0x3c19fff2	0.009399401
234	0x3c83b99f	0.016079722
235	0x3c32d6e0	0.010915488
236	0x3d8de7b5	0.0692896
237	0x3d802f25	0.06258992
238	0xbe0c3a06	-0.13694009
239	0xbdaad9bd	-0.083423115
240	0x3cbe41c0	0.023224711
241	0xbc1eb728	-0.009687223
242	0xbcc739d5	-0.024319569
243	0x3be5e780	0.0070161223
244	0x3d142aa0	0.036173463
245	0x3dacd843	0.08439686
246	0xbd98768b	-0.07444485
247	0xbcb4f78c	-0.022090696
248	0xbdb737f5	-0.0894622
249	0xbca298c0	-0.019848228
250	0xbc4f0c29	-0.012637177
251	0xbc34c68e	-0.011033667
252	0x3d1584c4	0.03650357
253	0xbdc839ca	-0.097766474
254	0xbc1a4cea	-0.009417752
255	0xbd0b0c3a	-0.033947207

net.0.bias f4 [256]
0	0x3d98ecf7	0.074670725
1	0xbd9819ce	-0.07426797
2	0xbe20cf1c	-0.15704006
3	0xbcdd35ad	-0.027003134
4	0x3d4fcb32	0.05073089
5	0xbccaf827	-0.024776531
6	0xbc7f6cf1	-0.0155899385
7	0x3dc7c424	0.09754208
8	0xbe257532	-0.16157988
9	0x3d9a3210	0.0752908
10	0x3deea781	0.116530426
11	0xbe1fe393	-0.15614156
12	0x3d8c1387	0.06839662
13	0x3e16d552	0.14729813
14	0x3c93eebf	0.018058179
15	0x3ceb9a21	0.028760018
16	0xbe1678d9	-0.14694537
17	0xbe06167f	-0.13094519
18	0x39fd4d8e	0.00048313703
19	0x3d98284d	0.07429562
20	0x3d8d85f4	0.06910315
21	0xbd836273	-0.06415262
22	0xbdfe6124	-0.12420872
23	0x3d8aaa10	0.06770718
24	0x3cc8564e	0.024455216
25	0xbd84d30d	-0.06485567
26	0xbe5a8d8f	-0.21343063
27	0x3e16c8f2	0.14725092
28	0x3d34c25c	0.044130668
29	0xbcceaa24	-0.025227614
30	0x3cf44f3b	0.029822936
31	0xbe05f0e9	-0.13080181
32	0xbbc51967	-0.006014991
33	0xbd921fb2	-0.07134952
34	0xbe274a9c	-0.16337055
35	0xbd3659a0	-0.044519067
36	0xbdd118db	-0.10209819
37	0x3ddf8335	0.10913698
38	0xbe14ac38	-0.14518821
39	0xbe0c332e	-0.13691399
40	0xbe07f558	-0.13277185
41	0x3d5b6aa0	0.053568482
42	0xbc98d901	-0.018658163
43	0xbd074225	-0.033022065
44	0x3dd0cf09	0.10195739
45	0xbe1b643a	-0.15174952
46	0xbcd6f279	-0.026238667
47	0xbe586f9c	-0.21136326
48	0xbe269a8f	-0.16269897
49	0xbd8bfe08	-0.06835562
50	0xbd8728fb	-0.06599613
51	0x3cb3d530	0.021952242
52	0x3dc22b9b	0.09480973
53	0x3d314a52	0.043283768
54	0x3cf94cbd	0.0304321
55	0xbe05bb01	-0.13059618
56	0xbd0af5de	-0.033925883
57	0x3dfacf09	0.1224652
58	0x3bd1c87e	0.0064020744
59	0xbd84b3ba	-0.064795926
60	0x3e04234c	0.1290409
61	0xbc1518ce	-0.009100152
62	0xbc446293	-0.011986393
63	0xbe4eb34a	-0.20185581
64	0xbc8d95f3	-0.017283415
65	0xbe2b4252	-0.16724518
66	0x3e02e5be	0.12782952
67	0xbdd73456	-0.10508029
68	0x3deae0c2	0.114686504
69	0xbdaf56a0	-0.08561444
70	0xbd9c581c	-0.07633993
71	0xbdf1aa27	-0.11800032
72	0x3e00041a	0.12501565
73	0x3d0031c6	0.031297468
74	0x3c55fdde	0.013061015
75	0xbcbf5048	-0.02335371
76	0xbd6164f0	-0.055027902
77	0x3d9785d5	0.07398573
78	0xbe1249e2	-0.14285997
79	0xbe44a006	-0.19201669
80	0xbc66ca76	-0.014086356
81	0xbe2ecccd	-0.17070313
82	0x3d5d9a27	0.05410209
83	0x3d23fd57	0.040036526
84	0xbd98337b	-0.07431694
85	0xbbd1d6d8	-0.006403785
86	0x3df80473	0.121102236
87	0x3d8d8133	0.069094084
88	0xbd09197c	-0.03347157
89	0xbdf521fd	-0.119693734
90	0x3de265b2	0.11054553
91	0x3bc8c6be	0.0061272075
92	0xbdc8a336	-0.09796755
93	0xbe25ae7a	-0.16179839
94	0xbc4e76d0	-0.012601569
95	0xbd6f4bef	-0.058422025
96	0x3cdea943	0.02718032
97	0x3c5e8343	0.0135811
98	0x3b2a7c0a	0.0026013874
99	0xbbe02dc4	-0.006841393
100	0x3b48d067	0.0030641796
101	0x3e03a463	0.12855677
102	0x3d165557	0.03670248
103	0xbd39a546	-0.045323633
104	0x3d7f4239	0.062319014
105	0x3e0af0a2	0.13568357
106	0x3df7beb4	0.120969206
107	0xbbe79ef5	-0.0070685097
108	0xbe39903d	-0.18121429
109	0xbda14fa2	-0.07876517
110	0xbd3f4749	-0.046698842
111	0xbcd596eb	-0.02607294
112	0xbe29cb75	-0.16581519
113	0xbb9169a4	-0.004437642
114	0xbb1b3d3f	-0.0023687629
115	0xbdb1f584	-0.086894065
116	0x3cabfd3f	0.02099478
117	0xbe098c8b	-0.13432519
118	0x3dae3b27	0.08507376
119	0x3e0d5f0c	0.13805789
120	0x3dcf2ddd	0.101161696
121	0xbdce3f72	-0.10070695
122	0xbe22d17c	-0.15900224
123	0xbe39c513	-0.18141584
124	0xbe0eabbd	-0.139327
125	0x3de705bc	0.112803906
126	0xbe55d7d4	-0.20883113
127	0x3d5e0f0e	0.054213576
128	0x3d4d4f24	0.050124303
129	0x3d6473ed	0.055774618
130	0x3e0e58ae	0.13901016
131	0xbdc61adb	-0.09673091
132	0xbe7381d3	-0.23779993
133	0x3d39df79	0.045379136
134	0xbd6f31f0	-0.058397233
135	0xbdb00f72	-0.08596696
136	0xbe6305f2	-0.22170237
137	0x3d3bccd6	0.045849644
138	0x3cc23be9	0.023710208
139	0xbd72c228	-0.059267193
140	0xbe423128	-0.18964064
141	0xbdcb8126	-0.099367425
142	0x3d9fb3b2	0.07797946
143	0xbd5ee68b	-0.05441908
144	0x3da10261	0.07861782
145	0xbdaf3e50	-0.08556807
146	0xbc48c67a	-0.012254352
147	0xbcdb723b	-0.026787868
148	0x3db046e4	0.08607271
149	0xbce51609	-0.027964609
150	0x3e08ecad	0.13371535
151	0xbe0399fc	-0.12851709
152	0xbe134815	-0.14382966
153	0x3c97ad7e	0.018515345
154	0xbcd9acd3	-0.026571667
155	0xbe08fa90	-0.13376832
156	0xbd9d4aa8	-0.07680255
157	0xbd557b78	-0.052119702
158	0xbdc7321e	-0.09726356
159	0xbd2adeb5	-0.041716296
160	0xbdc3fc1b	-0.0956957
161	0xbde20ea4	-0.11037949
162	0x3e14c861	0.14529563
163	0x3b306f66	0.0026921867
164	0x3dfea533	0.12433853
165	0x3db2effb	0.08737179
166	0x3e19b3e9	0.15010037
167	0xbe245ab6	-0.16050228
168	0xbdf1206f	-0.11773764
169	0x39eb10b7	0.00044835146
170	0xbdfb563d	-0.12272308
171	0x3d3f5673	0.046713304
172	0xbdd5f284	-0.10446647
173	0x3df17876	0.11790554
174	0xbc5b4586	-0.013383275
175	0x3d90745b	0.07053443
176	0xbcc3e9f3	-0.023915267
177	0xbdffe4a6	-0.12494783
178	0xbdeaa1ff	-0.114566796
179	0xbc340330	-0.010987088
180	0xbe056521	-0.13026859
181	0xbe2ba3a5	-0.16761644
182	0xbe1850f6	-0.14874634
183	0x3df077a5	0.117415704
184	0xbdfc44db	-0.12317821
185	0xbbec32c0	-0.0072081983
186	0x3dc2ca1d	0.09511206
187	0x3dbe45a8	0.092906296
188	0x3d637fbd	0.055541743
189	0x3dd5dd60	0.104426146
190	0x3e046fd6	0.12933287
191	0xbe3336af	-0.17501329
192	0x3bf01138	0.0073262714
193	0xbe24034b	-0.16016881
194	0x3c9c33ab	0.019067606
195	0xbdd515ed	-0.10404573
196	0xbd11cb7c	-0.03559445
197	0xbd1b2c82	-0.037884243
198	0x3dd7a62d	0.105297424
199	0xbe273f2e	-0.16332695
200	0x3c973cfc	0.018461697
201	0x3dfa3d19	0.12218685
202	0x3d970d2b	0.073755585
203	0x3d585b31	0.052821342
204	0x3e04fb30	0.12986445
205	0xbe4e68c6	-0.20157155
206	0xbd852a94	-0.06502262
207	0x3e389440	0.18025303
208	0x3e0c83f8	0.13722217
209	0x3d463ef0	0.048399866
210	0xbe2fd339	-0.17170419
211	0x3dd646ed	0.10462747
212	0xbd3bb549	-0.045827184
213	0x3e0341d0	0.12818074
214	0xbd638c49	-0.05555371
215	0xbd54db82	-0.05196715
216	0x3da22351	0.07916892
217	0xbe2bc765	-0.16775282
218	0xbcd4cf65	-0.0259778
219	0xbe29cbaa	-0.16581598
220	0xbdc090df	-0.09402632
221	0xbd03f480	-0.032215595
222	0xbd3b8c8b	-0.04578833
223	0xbd6cf721	-0.057852868
224	0xbc57dec4	-0.01317567
225	0xbe191119	-0.14947928
226	0x3caad2c3	0.020852452
227	0xbdd7359c	-0.10508272
228	0xbd5acb79	-0.053416703
229	0xbd3bc80f	-0.045845088
230	0x3d534888	0.051582843
231	0xbd3082d6	-0.043093525
232	0x3e0c8851	0.13723876
233	0xbdb8f7a6	-0.0903161
234	0xbe2fca8e	-0.17167112
235	0xbe2a7da9	-0.16649498
236	0x3d6e2eb2	0.05815
237	0xbc43d23c	-0.011951979
238	0xbd6fa1f4	-0.05850406
239	0x3df8077e	0.12110804
240	0xbdc22cb9	-0.094811864
241	0xbe09b688	-0.13448536
242	0xbdb7a23a	-0.08966489
243	0x3cc2dc29	0.023786621
244	0xbca50703	-0.020144945
245	0xbe23c10d	-0.15991612
246	0x3e40476c	0.18777245
247	0xbd8c8549	-0.068613596
248	0x3db06e56	0.08614795
249	0x3ddf1b2f	0.10893857
250	0xbe8c329f	-0.2738237
251	0xbd90b289	-0.07065303
252	0xbdfe0951	-0.12404121
253	0x3e1f1e6f	0.15538953
254	0xbc8985c1	-0.016787412
255	0x3d043c07	0.03228381

net.3.weight f4 [128, 256]
0	0x3d596b7c	0.05308102
1	0x3b9069b6	0.004407133
2	0xbd3b0238	-0.045656413
3	0x3d334c5d	0.043773998
4	0xbcfcf385	-0.030877838
5	0x3d2f17fe	0.04274749
6	0xbc33a4f9	-0.0109646255
7	0x3ce684de	0.028139528
8	0xbe06c5c5	-0.1316138
9	0xbc29a2e9	-0.010353782
10	0x3c2804e8	0.010255076
11	0xbdd4adce	-0.10384713
12	0xbcc47b1e	-0.023984488
13	0xbc8141d0	-0.015778452
14	0xbcdb196d	-0.026745522
15	0x3cfe4278	0.031037554
16	0xbdcbcebf	-0.09951543
17	0xbdc6e473	-0.09711542
18	0xbd7a8f57	-0.061171856
19	0xbc7fa702	-0.015603783
20	0x3cf662b6	0.030076366
21	0xbd1572a7	-0.036486294
22	0xbd295377	-0.041339364
23	0x3d5eae33	0.054365348
24	0xbdbffe9c	-0.09374735
25	0x3d225292	0.039629526
26	0xbd812d26	-0.063074395
27	0x3d6282c0	0.055300474
28	0x3d47b878	0.048759907
29	0x3d022ebb	0.031782847
30	0x3c150030	0.009094283
31	0xbdc2223a	-0.094791844
32	0xbd901c07	-0.07036596
33	0x3c3454f1	0.01100658
34	0xbda3d09d	-0.07998774
35	0xbdc65cfe	-0.096857056
36	0xbd7d135d	-0.061786044
37	0xbac03c8c	-0.0014666482
38	0x3d2374c0	0.039906263
39	0xbcd29ce7	-0.025709582
40	0x3d0c2e3a	0.034223773
41	0x3c8308c5	0.015995393
42	0x3d6e6439	0.05820105
43	0xbc538e00	-0.012912273
44	0xbcb40d8a	-0.021979112
45	0xbe15b8bf	-0.14621256
46	0xbc0866d6	-0.008325299
47	0xbe31d79f	-0.17367409
48	0xbdd38d4a	-0.10329683
49	0x3bba65e3	0.0056884154
50	0xbd9b815c	-0.07593033
51	0xbcae3c79	-0.02126907
52	0xbb320042	-0.0027160798
53	0xbd1eed51	-0.03880054
54	0xbcbdff4d	-0.023193026
55	0xbcc3bc09	-0.023893373
56	0xbd66d0d0	-0.056351483
57	0x3c6b3e62	0.014358135
58	0xbd8d47dd	-0.068984725
59	0x3da2450c	0.07923326
60	0x3cf5d0cf	0.030006794
61	0x3d032534	0.0320179
62	0x3c2fa74b	0.010721038
63	0xbe007be1	-0.12547256
64	0x3d93fa6d	0.07225499
65	0x3d682b7d	0.0566821
66	0xbd11566e	-0.035482816
67	0xbb9b0597	-0.004730891
68	0x3ca3a77b	0.019977322
69	0xbd8bf357	-0.06833523
70	0xbdd40d7e	-0.10354136
71	0xbdf76b92	-0.12081064
72	0x3c6856d8	0.014180861
73	0xbb07116f	-0.0020609756
74	0xbb7cd327	-0.0038578005
75	0xbb33432a	-0.0027353265
76	0x3e2c9b90	0.16856217
77	0x3d72f323	0.059313904
78	0xbd59817d	-0.053102005
79	0x3d00ef4d	0.031478215
80	0xbc632172	-0.013862954
81	0xbbfbd7f3	-0.0076856553
82	0xbcd1e02d	-0.02561959
83	0xbb4ce75b	-0.0031265828
84	0x3c5bf87a	0.013425941
85	0xbc5c7894	-0.013456482
86	0x3d31d382	0.0434146
87	0x3cb3d523	0.021952217
88	0x3d6d7613	0.057973932
89	0x3bcb9770	0.006213121
90	0xbccfdfdf	-0.025375305
91	0x3d11006b	0.03540079
92	0x3df8d1a4	0.12149361
93	0xbd829282	-0.063756004
94	0x3d1be0de	0.038056247
95	0xbd473339	-0.048632834
96	0x3cbfec1f	0.023428021
97	0x3d02652a	0.03183476
98	0xbca3dc88	-0.020002618
99	0xbc92a98d	-0.017903114
100	0x3c1a4696	0.009416243
101	0x3ccab4c4	0.024744399
102	0x3d3309ae	0.043710403
103	0x3c963e35	0.01834021
104	0x3cc7365b	0.02431791
105	0x3d07791a	0.033074476
106	0x3cb1c08b	0.021698257
107	0xbd7af728	-0.061270863
108	0xbdf3299d	-0.118731715
109	0xbb848923	-0.0040446683
110	0xbd833f50	-0.0640856
111	0xbcf70d5a	-0.030157734
112	0xbba26749	-0.00495616
113	0x3a0b1e15	0.0005306912
114	0x3c23ca29	0.009996929
115	0x3d26f204	0.040758148
116	0x3b76c05b	0.0037651274
117	0xbd9bb3ff	-0.07602691
118	0x3bd5e75c	0.0065278243
119	0x3ccfa031	0.02534494
120	0x3cf7131a	0.030160476
121	0xbca92f7c	-0.020652525
122	0xbd759923	-0.059960496
123	0xbe0daf1b	-0.13836329
124	0xbe426141	-0.18982412
125	0x3d6e8b0c	0.058238074
126	0xbdd327ff	-0.10310363
127	0x3cf399f4	0.029736497
128	0x3ba21998	0.0049468987
129	0xbc195f10	-0.009361044
130	0x3d80f891	0.0629741
131	0xbcd29e2e	-0.025710192
132	0xbd5650dc	-0.052323207
133	0xbd5bcd29	-0.053662453
134	0xbb3ca8c2	-0.002878711
135	0xbd8c18a9	-0.06840641
136	0xbc8b3c5f	-0.01699656
137	0xbcef5390	-0.02921465
138	0x3d840d7b	0.06447884
139	0xbda5fd27	-0.081049256
140	0xbdbc9818	-0.09208697
141	0xbbaab48b	-0.0052095107
142	0xbc9bad1b	-0.019003442
143	0xbd3e338e	-0.046435885
144	0x3cd5ef39	0.026115047
145	0x3cd8ae96	0.026450437
146	0x3c86e1c8	0.016465083
147	0x3c93d572	0.018046115
148	0x3ceb9615	0.028758088
149	0xbd1fe0dc	-0.039032802
150	0x3d4ad686	0.04952099
151	0xbd634370	-0.055484235
152	0xbdd908f7	-0.10597413
153	0x3d2a8443	0.04163004
154	0xbd17eaae	-0.037089042
155	0xbe296721	-0.16543247
156	0xbdfde85a	-0.12397833
157	0xbca69874	-0.020336367
158	0xbd8ff16f	-0.07028472
159	0xbd8e8c3b	-0.069603406
160	0xbda6e08a	-0.08148296
161	0xbce3a5a9	-0.027788954
162	0xbd1c7201	-0.03819466
163	0x3cc417e2	0.02393717
164	0x3d0d55e5	0.034505744
165	0xbc5ad52e	-0.01335649
166	0x3c957156	0.01824252
167	0xbdd5a1f5	-0.104312815
168	0xbdaa0678	-0.08302015
169	0xbcae2254	-0.021256603
170	0xbcde26f8	-0.027118191
171	0x3ba6b387	0.0050873193
172	0x3d43f10a	0.047837295
173	0xbcb7a927	-0.022419525
174	0xbdd64f78	-0.10464376
175	0xbb1dd73b	-0.0024084586
176	0xbc0b9057	-0.0085183
177	0xbd876d2a	-0.06612618
178	0xbde98f84	-0.114043266
179	0xbd639b9a	-0.055568315
180	0xbdaa84c0	-0.08326101
181	0xbc85d10c	-0.016335033
182	0xbe1f6446	-0.15565595
183	0x3cdc196f	0.026867596
184	0xbd9257a2	-0.07145621
185	0xbd4f001d	-0.050537217
186	0x3c1edc72	0.009696113
187	0x3d0f94e5	0.035054106
188	0xbaac3b3c	-0.0013140212
189	0x3d448f00	0.047987938
190	0x3d4d2e0f	0.050092753
191	0x38289d9f	4.0201117e-05
192	0x3d4c58b8	0.049889296
193	0x3d7a1069	0.061050806
194	0x3d726dfe	0.059186928
195	0x3cd37e6f	0.025817124
196	0x3d2c93f7	0.042133298
197	0xbc323515	-0.010876914
198	0x3c31a729	0.010843077
199	0xbd9569c9	-0.072955675
200	0x3d1b4036	0.037903033
201	0xbc6bf43a	-0.01440149
202	0xbd0e62b1	-0.03476209
203	0x3bbf8b90	0.0058454946
204	0x3c7ad974	0.015310634
205	0xbd8b47c9	-0.06800801
206	0xbcb41b7d	-0.021985764
207	0x3c07bbfd	0.008284566
208	0x3d978866	0.07399063
209	0xbd8803ff	-0.06641387
210	0x3c35d0db	0.011097158
211	0xbc9b3517	-0.018946214
212	0xbd13ed68	-0.03611508
213	0xbcbdbd0f	-0.02316144
214	0x3dc5064d	0.096203424
215	0xbca5358a	-0.020167131
216	0x3d90b475	0.070656694
217	0xbdc1399e	-0.09434818
218	0x3cc2b8fa	0.023769844
219	0xbe1214a2	-0.14265683
220	0xbde2e641	-0.11079074
221	0xbd098975	-0.033578355
222	0xbcfda873	-0.030964112
223	0xbc86a77d	-0.016437287
224	0x3d81e434	0.063423544
225	0x3d505260	0.05085981
226	0xbc40af68	-0.01176057
227	0xbca9924c	-0.020699643
228	0xbd98b194	-0.07455745
229	0xbd0a076e	-0.03369849
230	0xbcad85bc	-0.021181934
231	0xbc92ed65	-0.017935464
232	0x3d36059f	0.044438954
233	0x3d56ea64	0.052469626
234	0xbdb2d843	-0.08732655
235	0xbdc35301	-0.09537316
236	0x3d0f32d5	0.034960587
237	0xbc710c5a	-0.0147124175
238	0x3cb507c7	0.022098435
239	0xbd12d8f3	-0.03585143
240	0xbd0acdd3	-0.033887696
241	0x3a3c94ff	0.0007193833
242	0x3ca658d4	0.020306028
243	0x3cd346d0	0.025790602
244	0xbd39cbf7	-0.04536053
245	0xbceed06f	-0.029152123
246	0x3cf07a40	0.029355168
247	0x3c747c93	0.014922279
248	0xbc30edb1	-0.010798858
249	0x3d3a6a49	0.045511518
250	0xbdb3cd1e	-0.087793574
251	0xbd30c909	-0.043160472
252	0xbdbac40c	-0.09119424
253	0x3cfee203	0.03111363
254	0x3b44ada7	0.0030010731
255	0x3cf4c752	0.0298802

net.3.bias f4 [128]
0	0x3d1518b2	0.036400504
1	0x3d80e8a4	0.06294373
2	0xbc1e4f0f	-0.009662404
3	0x3dda7583	0.10666945
4	0x3d216bfc	0.039409623
5	0x3da6ee3e	0.0815091
6	0xbdb17e6f	-0.086666934
7	0x3d83690a	0.06416519
8	0x3c9d22cb	0.01918163
9	0xbd9d212f	-0.07672345
10	0xbd5fe82c	-0.054664776
11	0xbd4e7c19	-0.050411317
12	0xbcd14bab	-0.025548777
13	0x3c96c030	0.018402189
14	0xbde8a0b7	-0.11358779
15	0xbc37cc25	-0.011218105
16	0x3d6e4502	0.05817128
17	0xbd51c5ef	-0.051214155
18	0x3c86221e	0.01637369
19	0x3db30a1c	0.087421626
20	0x3dd78da7	0.10525065
21	0xbc97e89a	-0.01854353
22	0xbcc1be11	-0.023650201
23	0xbc37f642	-0.011228146
24	0xbd861e6f	-0.065487735
25	0x3e0642bf	0.13111399
26	0x3c0b9fc5	0.008521979
27	0x3bf958e2	0.0076094726
28	0x3d5a5f54	0.05331357
29	0xbda5b00b	-0.08090218
30	0x3d1cefd8	0.03831467
31	0x3cab677a	0.020923365
32	0x3d92e45f	0.071724646
33	0xbc0cead3	-0.008600908
34	0xbd3cdc0c	-0.04610829
35	0x3dd94d5b	0.106104575
36	0xbd8d667f	-0.06904315
37	0xbc3e87c3	-0.011629048
38	0xbe0200e9	-0.1269566
39	0xbd0bed37	-0.034161773
40	0x3d156adf	0.036478873
41	0x3d4e33f9	0.050342534
42	0x3d9495f7	0.07255166
43	0x3d5463dd	0.05185305
44	0xbc970848	-0.018436566
45	0x3da80745	0.082045116
46	0xbc1aa96f	-0.00943981
47	0x3dbb0e1a	0.09133549
48	0x3dc3243b	0.09528395
49	0xbcf31418	-0.029672667
50	0xbd59ff7e	-0.053222172
51	0xbd13a2f9	-0.036044095
52	0x3cc7f1fc	0.02440738
53	0x3d3c79c9	0.04601458
54	0xbc753a7f	-0.01496756
55	0x3dcbe7da	0.099563316
56	0xbd1d4306	-0.038393997
57	0x3d045c4e	0.03231459
58	0x3c1b3532	0.009473132
59	0x3dc38b18	0.095480144
60	0x3d838c6f	0.0642327
61	0x3ce146e7	0.02749963
62	0x3d8bc48e	0.06824599
63	0xbd6d0450	-0.05786544
64	0xbd2424b7	-0.040074077
65	0x3dbb6b30	0.09151304
66	0xbc709b6a	-0.014685491
67	0x3cfd8063	0.030945009
68	0x3d25bc4f	0.04046279
69	0xbd5d896e	-0.05408614
70	0x3dcd5c08	0.10027319
71	0xbc8917b9	-0.016734945
72	0x3cc3e9e9	0.023915248
73	0x3d70f62d	0.05882852
74	0xbda5aa4d	-0.08089123
75	0x3cfe7fbc	0.031066768
76	0x3cf7f963	0.030270284
77	0xbcc65b11	-0.024213346
78	0x3cc9a5ba	0.024615157
79	0xbd749c1e	-0.059719197
80	0xbc0ae025	-0.008476292
81	0x3c6d4512	0.0144818
82	0xbd09c49b	-0.033634763
83	0xbd0344b4	-0.032047942
84	0x3dad3d71	0.08458985
85	0x3c820569	0.01587172
86	0xbb3b1bd0	-0.0028550513
87	0x3da2c01e	0.079468
88	0x3d60b8ae	0.054863624
89	0xbdc5d842	-0.096603885
90	0x3e03884c	0.12844962
91	0xbdb2d0b9	-0.08731217
92	0xbd69063d	-0.056890715
93	0x3b4a317a	0.0030852244
94	0xbdaa4bf7	-0.083152704
95	0x3d93f071	0.07223595
96	0xbdd90ab3	-0.10597744
97	0x3c0ff2bd	0.008785901
98	0x3dd830d5	0.10556189
99	0xbbd0dbdd	-0.006373866
100	0x3d90bbc2	0.07067062
101	0xbb07f643	-0.0020746149
102	0xbc769e9a	-0.015052462
103	0x3dab1a8a	0.08354671
104	0xbd712913	-0.058877062
105	0x3daac8e7	0.083391
106	0x3de25168	0.11050683
107	0x3ccfbd87	0.025358928
108	0xbd7bda30	-0.061487377
109	0xbd09aa33	-0.03360958
110	0xbc15d222	-0.009144338
111	0xbbafaf78	-0.0053614937
112	0xbd0d2928	-0.034463078
113	0x3a194095	0.000584611
114	0xbbbfc9a9	-0.005852897
115	0xbc340d28	-0.010989465
116	0xbbe64d18	-0.0070282333
117	0xbdc5e4bf	-0.096627705
118	0x3cb12baa	0.021627266
119	0xbdd07711	-0.1017896
120	0xbc620219	-0.013794445
121	0xbdbdf055	-0.09274355
122	0xbc92bbf9	-0.017911898
123	0xbce6450b	-0.028109094
124	0x3dba2d5f	0.09090685
125	0xbdbe10f2	-0.09280576
126	0x3d939104	0.07205394
127	0x3daa3797	0.08311384

net.6.weight f4 [64, 128]
0	0xbcfc758b	-0.030817768
1	0xbd629cba	-0.055325247
2	0xbe2cc9e5	-0.16873892
3	0xbc8e30d4	-0.017357267
4	0x3db8a23a	0.09015317
5	0x3c474ce3	0.012164327
6	0x3dc49161	0.09598041
7	0x3db03d90	0.08605492
8	0x3dbc1700	0.091840744
9	0x3d558378	0.05212733
10	0x3d2278e1	0.03966606
11	0x3d396caf	0.045269664
12	0x3dc0bd6c	0.09411129
13	0xbd546fc5	-0.051864404
14	0x3d95f84a	0.07322748
15	0xbe05cc38	-0.13066185
16	0x3ddaf02f	0.10690343
17	0x3bd1fe44	0.0064084847
18	0x3dd7d4b4	0.10538617
19	0xbde20573	-0.110361956
20	0xbe0068ce	-0.1253998
21	0xbcfa200e	-0.030532863
22	0xbd08126c	-0.033220693
23	0xbddae1ab	-0.10687574
24	0x3da3287a	0.07966705
25	0xbd99fb19	-0.07518596
26	0x3d203a7b	0.03911827
27	0xbd96d411	-0.07364667
28	0xbbccfa04	-0.00625539
29	0xbc222e27	-0.009898699
30	0xbd48decb	-0.049040597
31	0xbbbb1d24	-0.005710261
32	0xbdc9f41e	-0.09861015
33	0xbbc9fed5	-0.0061644115
34	0x3dce5194	0.100741535
35	0x3c1c7ba7	0.009550965
36	0x3db10297	0.08643072
37	0xbca93e7d	-0.02065968
38	0x3dc90809	0.09815986
39	0xbc3066c4	-0.010766689
40	0x3d92144d	0.07132778
41	0xbd330135	-0.043702323
42	0x3da6e5d2	0.081493035
43	0xbe012cc7	-0.12614737
44	0xbcbdad44	-0.023153909
45	0xbdf834ea	-0.121194676
46	0x3db04b47	0.08608108
47	0xbde375ea	-0.11106475
48	0xbd2748d8	-0.040840954
49	0x3d63578d	0.055503417
50	0x3d01482e	0.031562977
51	0x3c8f35ad	0.01748165
52	0xbac470a2	-0.001498718
53	0xbc873030	-0.01650247
54	0x3a1bc625	0.00059423066
55	0xbccc9570	-0.024973601
56	0x3d2f351d	0.042775262
57	0x3d3f4ffc	0.04670714
58	0x3db2b395	0.08725659
59	0x3d998e55	0.07497851
60	0xbdec3ec6	-0.115354106
61	0xbddb3d85	-0.10705093
62	0x3d9c990d	0.076463796
63	0xbc9b241f	-0.018938122
64	0x3db5f4fe	0.08884619
65	0x3db00fe3	0.0859678
66	0x3d0eb980	0.034844875
67	0x3cbe4197	0.023224635
68	0xbce793ec	-0.028268777
69	0x3cd3df96	0.02586345
70	0xbd9b451a	-0.075815395
71	0x3db79076	0.089631006
72	0x3d1c0ca5	0.038097996
73	0xbcc00652	-0.023440514
74	0x3ce2af0e	0.027671363
75	0xbdcd4091	-0.10022081
76	0x3cbe876f	0.02325794
77	0xbb5374ab	-0.0032265584
78	0x3ca1b390	0.019738942
79	0x3cb36de9	0.021902995
80	0x3cb24bdf	0.021764694
81	0xbc9d222f	-0.01918134
82	0x3dcd3646	0.100201175
83	0x3daa0a7f	0.08302783
84	0x3d9915c6	0.07474856
85	0xbcb9087b	-0.022587052
86	0xbcebf0d1	-0.028801354
87	0xbdba19f5	-0.09086982
88	0xbd854ee6	-0.06509189
89	0x3e0a5a61	0.1351104
90	0xbdf5c1ef	-0.119998805
91	0x3ddf4c14	0.109031826
92	0x3db558c1	0.08854819
93	0x3d9014b8	0.07035202
94	0x3d5420e7	0.05178919
95	0x3d9034a7	0.07041293
96	0x3d80660d	0.06269465
97	0xbd001c1a	-0.0312768
98	0xbd7a9888	-0.06118062
99	0xbde039e1	-0.109485395
100	0x3cc3b068	0.023887828
101	0x3d3553db	0.044269424
102	0x3dad14d6	0.0845124
103	0xbd410d1f	-0.047131654
104	0x3c87f195	0.016594687
105	0xbdb763cd	-0.08954582
106	0x3d604214	0.054750517
107	0xbdd6c3fa	-0.10486598
108	0xbc72851e	-0.014802245
109	0xbc359a75	-0.011084189
110	0x3ddd3589	0.10801227
111	0xbc51c2a8	-0.012802757
112	0x3d5c1b54	0.053737
113	0x3d14e296	0.0363489
114	0x3d96b644	0.07358983
115	0x3d6e53c3	0.05818535
116	0xbc886f2c	-0.016654573
117	0x3d34ba06	0.04412272
118	0x3ca91df6	0.02064417
119	0x3e1b3311	0.15156199
120	0xbca82d03	-0.020529276
121	0x3d252fc2	0.04032875
122	0x3d20987f	0.03920793
123	0x3d4ccd94	0.050000742
124	0xbd4498f0	-0.047997415
125	0x3e0af4b8	0.13569915
126	0xbd998e30	-0.07497823
127	0x3ac3acc8	0.0014928812
128	0x3d86b8ba	0.065782025
129	0x3ddead97	0.108729534
130	0x3df9bbf6	0.12194054
131	0x3da7e9d5	0.08198897
132	0x3d85fec6	0.06542735
133	0x3c892cad	0.016744936
134	0xbdaf5049	-0.08560235
135	0x3d0f074d	0.034919072
136	0xbd299fd9	-0.04141221
137	0xbce7b5e1	-0.028284969
138	0xbcb52994	-0.022114553
139	0xbd25a6db	-0.04044233
140	0xbd4b5e4b	-0.04965047
141	0x3c7975b8	0.01522582
142	0xbd2a364e	-0.041555695
143	0x3dba3bf6	0.09093468
144	0x3d8e8778	0.06959432
145	0xbcbfddf3	-0.023421263
146	0x3d13fc81	0.03612948
147	0x3d7f1acc	0.062281415
148	0x3ccde389	0.025132911
149	0xbd932d1a	-0.07186337
150	0xbd122627	-0.035680916
151	0x3da3618e	0.079775915
152	0xbda69664	-0.081341535
153	0x3e071d68	0.13194811
154	0x3d900170	0.07031524
155	0x3dce8ed7	0.10085838
156	0x3d857315	0.06516091
157	0xbdf38804	-0.11891177
158	0xbd01a5ee	-0.031652384
159	0x3d4838a8	0.048882157
160	0x3e322e26	0.17400417
161	0x3cb6b9b1	0.022305341
162	0x3aa19707	0.0012328335
163	0xb9f4ba2d	-0.00046678018
164	0xbde60f67	-0.112334065
165	0x3d853ce4	0.065057546
166	0xbe21c90d	-0.15799351
167	0xbd83db69	-0.064383335
168	0xbce5f993	-0.028073108
169	0x3dd3a0ff	0.10333442
170	0x3d7260d3	0.05917437
171	0x3e294bde	0.16532847
172	0x3def35d5	0.116801895
173	0x3e18df80	0.14929008
174	0x3cae8f80	0.02130866
175	0x3e14ecda	0.14543477
176	0x3d75c33b	0.06000064
177	0xbd709595	-0.058736403
178	0xbcbbfd81	-0.022948029
179	0xbd4eae76	-0.050459348
180	0x3cdc618c	0.026901983
181	0x3deae6bf	0.114697926
182	0xbc3d3503	-0.0115482835
183	0x3df5c745	0.12000898
184	0xbd23353a	-0.039845683
185	0xbcec5ccc	-0.028852843
186	0xbd612e9d	-0.054976095
187	0xbc821479	-0.015878903
188	0xbc03e3b4	-0.008049894
189	0x3da27724	0.079328805
190	0xbbd23116	-0.006414543
191	0xbd4880e9	-0.048951063
192	0xbe078d95	-0.13237603
193	0x3daa9f2b	0.0833114
194	0xba74651b	-0.0009322927
195	0xbd0cc56c	-0.034367964
196	0x3cde2ef4	0.027121998
197	0x3c499eca	0.012305925
198	0x3e3e3cba	0.18577853
199	0xbd08cb58	-0.03339705
200	0xbcd00e8a	-0.025397558
201	0x3df87a13	0.12132659
202	0xbddd5bbb	-0.10808512
203	0x3dd733cc	0.10507926
204	0x3cd4f0fb	0.025993815
205	0x3d071b81	0.032985214
206	0xbd48be67	-0.049009707
207	0xbd9f99d4	-0.07793012
208	0xbdae5f97	-0.08514326
209	0x3e05e34e	0.13074991
210	0xbd318f8d	-0.04334979
211	0xbd7bf942	-0.061517008
212	0x3d951463	0.07279279
213	0xbc8064e5	-0.01567311
214	0xbd065cf0	-0.032803476
215	0x3e0b1204	0.13581091
216	0x3db51b86	0.0884314
217	0xbe17c546	-0.14821348
218	0x3e3707ad	0.17874022
219	0xbdd619e8	-0.1045416
220	0x3b063a70	0.0020481609
221	0x3d67da01	0.05660439
222	0xbdfa3a3c	-0.122181386
223	0x3be5378f	0.0069951485
224	0xbdb1e131	-0.0868553
225	0x3c0a5df1	0.008445249
226	0x3dedf05c	0.116181105
227	0x3db9f9eb	0.09080871
228	0x3d9faf99	0.077971645
229	0xbd253d32	-0.040341564
230	0x3c10991f	0.008825569
231	0xbca1a8b3	-0.019733762
232	0xbd6a63e9	-0.057224188
233	0x3dfa2b57	0.12215298
234	0x3d943ede	0.072385535
235	0x3b926318	0.0044673793
236	0xbcd93da6	-0.026518654
237	0xbd3b06a2	-0.045660622
238	0x3d404f68	0.046950728
239	0xbd8fa330	-0.070135474
240	0xbc83ac18	-0.016073272
241	0xbd96cf0f	-0.07363712
242	0x3c2d54bb	0.010579283
243	0xbd11cdb1	-0.035596553
244	0x3b9e3ef1	0.0048292805
245	0xbdccf697	-0.10007971
246	0xbd3129c2	-0.043252714
247	0xbe2d2d33	-0.16911773
248	0xbd44c339	-0.04803774
249	0xbe0bda73	-0.1365755
250	0x3d13f7ab	0.036124866
251	0x3c289a62	0.010290714
252	0x3d23095f	0.03980386
253	0xbe217d9e	-0.15770575
254	0x3e071c40	0.1319437
255	0x3d51a9e5	0.051187415

net.6.bias f4 [64]
0	0xbcbca177	-0.023026211
1	0xbbef56c9	-0.007304047
2	0xbb5f15c5	-0.0034040075
3	0x3ca89287	0.020577682
4	0x3db0c965	0.08632163
5	0x3d848a4a	0.06471689
6	0x3db87ba7	0.0900796
7	0x3b3603bb	0.002777322
8	0xbc89fbef	-0.016843764
9	0xbb978afa	-0.0046247216
10	0xbc635798	-0.013875864
11	0x3d75ef6d	0.060042787
12	0xbd7b8bcb	-0.061412614
13	0x3b5c0f98	0.003357863
14	0x3b7eb789	0.003886672
15	0xbd3ab558	-0.0455831
16	0xbd2dda92	-0.042444773
17	0x3da6463b	0.08118864
18	0xbcfacbf4	-0.03061483
19	0xbcfcc6d8	-0.030856535
20	0x3d3d3905	0.046196956
21	0xbcc68b99	-0.024236487
22	0x3d9637c4	0.07334855
23	0xbc856d08	-0.016287342
24	0xbd40501c	-0.0469514
25	0x3dac0cbc	0.084008664
26	0xbc4c64c1	-0.0124751935
27	0xbd58f618	-0.05296907
28	0xbda2fe07	-0.07958608
29	0x3ce615fd	0.028086657
30	0xbbf87f4d	-0.007583535
31	0x3d2fced1	0.042921845
32	0x3d5f55ad	0.054525066
33	0xbc114c0e	-0.0088682305
34	0xbb248850	-0.0025105663
35	0x3cb5616f	0.022141187
36	0x3d9e6cf9	0.07735629
37	0x3d8173b3	0.06320896
38	0x3dfed7bc	0.12443492
39	0x3d57840a	0.052616157
40	0xbd7ab977	-0.06121203
41	0x3cc966c9	0.024585145
42	0x3d2f89c1	0.04285598
43	0x3c128dfb	0.008944984
44	0x3d8f6b80	0.07002926
45	0xbc63f1c9	-0.013912627
46	0xbd3e47fb	-0.046455365
47	0xbc3b52a4	-0.011433277
48	0xbd4083f4	-0.04700084
49	0x3d1d66be	0.03842806
50	0xbdbe9560	-0.09305835
51	0xbc6230ee	-0.013805611
52	0x3d08d7b2	0.033408828
53	0xbcbc2ae9	-0.02296968
54	0xbb39cafb	-0.0028349746
55	0xbcd4f752	-0.025996838
56	0xbd36468e	-0.04450088
57	0x3b431e75	0.0029772792
58	0x3d35f26d	0.04442065
59	0x3cf07aec	0.029355489
60	0xbca64b14	-0.020299472
61	0x3d90c4e0	0.07068801
62	0x3d9582ce	0.0730034
63	0x3cd6085d	0.026127035

net.9.weight f4 [1, 64]
0	0xbdf90328	-0.12158805
1	0x3dbae521	0.09125734
2	0x3e4223be	0.18958947
3	0x3dea9a57	0.11455219
4	0xbe119154	-0.14215595
5	0xbe191ccf	-0.14952396
6	0x3e0822e4	0.1329456
7	0xbe411554	-0.18855792
8	0xbe502ce8	-0.2032963
9	0xbe22c6bc	-0.15896124
10	0x3e1360bb	0.14392368
11	0xbde2a919	-0.11067409
12	0xbdd72e7e	-0.105069146
13	0x3df6844d	0.12036953
14	0xbe2c2d29	-0.16814102
15	0xbdcacd2e	-0.09902416
16	0x3e3487ca	0.17629924
17	0xbe025812	-0.12728909
18	0xbe002fb6	-0.125182
19	0x3e39f30e	0.18159124
20	0x3dbaefbe	0.091277584
21	0x3e2903b7	0.16505323
22	0xbe06d3c8	-0.13166726
23	0xbe08622f	-0.13318704
24	0xbdf41e3a	-0.11919828
25	0xbd730927	-0.0593349
26	0xbe14c3ff	-0.14527892
27	0xbe04ed37	-0.12981115
28	0xbe32d07f	-0.17462347
29	0x3e6d0f23	0.23150305
30	0x3e00e688	0.1258794
31	0x3e476331	0.19471432
32	0x3e6454df	0.22298001
33	0xbe41c24d	-0.18921776
34	0xbdcfe92a	-0.101518944
35	0x3e409e08	0.18810284
36	0xbe122530	-0.14271998
37	0xbdb2652b	-0.087107025
38	0x3da7b7b7	0.08189338
39	0x3e178817	0.14798008
40	0xbe4466e0	-0.19179869
41	0x3dd0b55c	0.101908416
42	0x3e0d677a	0.13809004
43	0xbe0f0f9c	-0.13970798
44	0xbe264e12	-0.16240719
45	0x3e20abfc	0.15690607
46	0xbdc34393	-0.09534373
47	0x3e28d7d2	0.16488579
48	0xbe968df1	-0.29405168
49	0x3e04ca0e	0.12967703
50	0x3d516f29	0.0511314
51	0x3e12ce64	0.14336544
52	0xbdcd0be6	-0.10012035
53	0x3e006af5	0.12540801
54	0x3de9a29e	0.1140797
55	0x3e03f999	0.12888183
56	0x3e42b71c	0.19015163
57	0x3dd06ab6	0.101766035
58	0xbe02ccd5	-0.1277345
59	0xbddd9bf7	-0.108207636
60	0xbe096186	-0.13416108
61	0xbdd81d9e	-0.10552524
62	0xbbb35e56	-0.005473892
63	0x3dd6186e	0.10453878
